Parte12/Ex1/models/checkpoint.pkl (torch, 381346 bytes, 54 tensors)

layer1.0.weight f4 [16, 3, 3, 3]
0.24005152 0.051142793 -0.13078827 0.028668236 -0.053723093 -0.022751112 -0.24092327 -0.057025716
0.10618689 0.11740711 0.22596292 0.23746605 -0.15626228 0.18056232 0.079567865 0.019667113
-0.06596959 0.13745339 0.0355949 0.12832233 -0.016018456 -0.17666848 -0.098734595 0.14760248
-0.20888327 -0.045158632 0.06367772 -0.15495169 0.104592845 -0.07511945 -0.019045044 0.022057505
0.24727893 -0.101333976 0.025758635 0.19735104 -0.17808177 -0.19292563 -0.0047559845 -0.09080801
0.11388885 0.07302569 0.101095416 0.16901998 -0.07201927 -0.06820879 -0.23412436 0.14391376
0.13481629 -0.0069707916 0.12719497 -0.024642596 -0.093903966 -0.059289515 -0.007969301 0.016321676
0.026312005 -0.0068646003 0.004112106 -0.138574 0.16601266 -0.10385664 -0.077436864 -0.14731337
-0.07124062 -0.123324595 -0.13315226 -0.2992374 0.077060066 -0.19013026 -0.09481232 0.010771163
0.06643304 -0.23207763 -0.21337259 0.011423849 0.07592081 0.1418956 -0.17417344 -0.08673545
0.055746317 -0.15545912 0.06291757 0.17607762 -0.20576367 0.058598164 -0.084073 -0.27280834
-0.08100531 0.017990233 -0.10337107 0.153718 0.12733938 -0.1409619 -0.13765933 -0.011700996
-0.17189877 0.028690005 -0.05111777 0.1399203 0.11413461 -0.037633162 0.18589054 0.049257684
0.07817853 0.09524067 -0.11834938 -0.006686077 0.110297635 0.18885672 -0.078778826 0.017131189
0.101246394 -0.03234535 -0.006301554 -0.02583862 -0.09163386 0.21786067 0.035416666 0.08213298
-0.07905643 -0.071114406 -0.21594188 -0.060310487 -0.14773385 -0.13361481 0.21617894 -0.06560974
-0.06847886 0.11635761 -0.14603792 -0.03770777 0.11218808 -0.004521931 0.025241984 0.12273751
0.1821944 -0.049356926 -0.10569322 0.23001674 -0.077535175 0.18153724 0.22545096 -0.009835455
-0.07267396 -0.15981591 -0.16912997 -0.14998701 -0.050075207 0.1422161 0.07379796 -0.008087774
0.08702056 0.14842534 -0.19587094 -0.18711038 -0.20458302 0.16272503 -0.22953853 -0.24169251
0.12863593 -0.16713676 -0.052708074 -0.16854247 -0.19258991 -0.078014575 -0.15824811 0.036328364
0.063111395 0.14236479 -0.078434475 -0.21724787 0.106678225 0.15217575 0.05908826 0.13747315
0.01143866 -0.009853962 0.11074496 0.203541 0.04106957 -0.23679264 -0.14237572 0.016443873
0.11734792 0.07185683 0.04718532 -0.00057488633 0.21068531 0.055738237 -0.09723706 0.13831884
0.20733877 0.031229237 0.07507719 0.26557672 -0.008499261 0.057357907 -0.18951637 -0.2305103
-0.031204225 0.18268888 -0.19679612 -0.14683188 0.0034073102 -0.11711111 0.15094881 -0.027792998
0.17696533 -0.15169796 0.0431994 0.09145562 -0.1817324 0.10932324 -0.05527189 0.21410066
-0.16968943 0.04572152 0.059966337 -0.1565505 -0.05184738 0.16129538 0.18771319 0.049084093
-0.1435728 -0.13561621 -0.17836444 0.014783849 0.15148328 -0.08850082 0.06278494 0.023433445
0.22600871 0.15667523 -0.10793853 0.007377843 -0.14594129 -0.15595147 -0.086608246 0.24469636
0.03495466 -0.06484399 -0.031919252 0.1339766 -0.11886556 -0.0183147 -0.053786773 0.1590057
-0.15780042 -0.14340712 0.17360075 0.042902675 -0.13338575 -0.09508634 -0.1825455 0.18466441
00000000: 11d0 753e 1b7b 513d 5ced 05be a6d9 ea3c
00000010: bf0c 5cbd 8a60 babc 97b4 76be cc93 69bd
00000020: 8378 d93d 2473 f03d d362 673e 4d2a 733e
00000030: 3803 20be 54e5 383e 7af4 a23d ed1c a13c
00000040: 101b 87bd 95c0 0c3e f5cb 113d ee66 033e
00000050: 2339 83bc 95e8 34be 5d35 cabd 1b25 173e
00000060: 7fe5 55be 42f8 38bd 7769 823d a8ab 1ebe
00000070: c634 d63d 3ad8 99bd 5a04 9cbc f1b1 b43c
00000080: b036 7d3e 3088 cfbd c603 d33c 6416 4a3e
00000090: 115b 36be 4c8e 45be 17d8 9bbb 8df9 b9bd
000000a0: 8f3e e93d 7e8e 953d 1d0b cf3d 9313 2d3e
000000b0: d77e 93bd 0db1 8bbd 4cbe 6fbe 215e 133e
000000c0: 480d 0a3e 3d6b e4bb 663f 023e 45df c9bc
000000d0: b950 c0bd 90d9 72bd ac91 02bc 09b5 853c
000000e0: 468c d73c 71f0 e0bb d8be 863b 58e6 0dbe
000000f0: 39ff 293e cab2 d4bd 3897 9ebd 51d9 16be
00000100: 9ae6 91bd 9b91 fcbd 1159 08be a535 99be
00000110: abd1 9d3d 82b1 42be f62c c2bd 8879 303c
00000120: 0c0e 883d c2a5 6dbe 587e 5abe 182b 3b3c
00000130: 5f7c 9b3d 154d 113e 865a 32be 5ba2 b1bd
00000140: 4056 643d ad30 1fbe edda 803d b14d 343e
00000150: b6b3 52be a104 703d 772e acbd 89ad 8bbe
00000160: 1de6 a5bd 4160 933c 36b4 d3bd 4068 1d3e
00000170: 4165 023e 5158 10be 91f6 0cbe 89b5 3fbc
00000180: 3b06 30be 4d07 eb3c de60 51bd 4447 0f3e
00000190: 68bf e93d 3b25 1abd 175a 3e3e 6dc2 493d
000001a0: 111c a03d 8a0d c33d 2961 f2bd e116 dbbb
000001b0: bae3 e13d a863 413e cb56 a1bd b556 8c3c
000001c0: 455a cf3d 8f7c 04bd 447d cebb 83ab d3bc
000001d0: 88aa bbbd de16 5f3e 1111 113d 5635 a83d
000001e0: 56e8 a1bd 6ea4 91bd de1f 5dbe 2108 77bd
000001f0: 8b47 17be 52d2 08be 035e 5d3e 665e 86bd
00000200: a53e 8cbd e64c ee3d f78a 15be 7673 1abd
00000210: ddc2 e53d b52c 94bb 47c8 ce3c ce5d fb3d
00000220: 2b91 3a3e 7d2a 4abd b075 d8bd 8289 6b3e
00000230: c3ca 9ebd e6e4 393e 9edc 663e e324 21bc
00000240: 16d6 94bd c8a6 23be 6830 2dbe 3296 19be
00000250: a91b 4dbd 19a1 113e 6323 973d 9582 04bc
00000260: d637 b23d d0fc 173e 6492 48be dd99 3fbe
00000270: 367e 51be 64a1 263e 260c 6bbe 3e7e 77be
00000280: 23b9 033e e625 2bbe 6ce4 57bd 6696 2cbe
00000290: 4a36 45be 1bc6 9fbd cb0b 22be 0dcd 143d
000002a0: 8c40 813d 13c8 113e 41a2 a0bd 3a76 5ebe
000002b0: 1d7a da3d f6d3 1b3e 8806 723d c3c5 0c3e
000002c0: 3869 3b3c 8372 21bc 41ce e23d 0d6d 503e
000002d0: 9138 283d c579 72be f1ca 11be 4db5 863c
000002e0: 1b54 f03d ac29 933d 6545 413d f8b3 16ba
000002f0: e4bd 573e c74d 643d 3924 c7bd 74a3 0d3e
00000300: 9d50 543e 75d4 ff3c 12c2 993d acf9 873e
00000310: 7c40 0bbc 20f0 6a3d 9410 42be e40a 6cbe
00000320: 01a0 ffbc cb12 3b3e ec84 49be 195b 16be
00000330: 2e4d 5f3b f3d7 efbd 5392 1a3e 24ae e3bc
00000340: 6636 353e b656 1bbe dbf1 303d 164d bb3d
00000350: 0f18 3abe dde4 df3d c764 62bd 343d 5b3e
00000360: 11c3 2dbe 7d46 3b3d 439f 753d c64e 20be
00000370: eb5d 54bd 9e2a 253e e337 403e 670c 493d
00000380: c004 13be fade 0abe 2ba5 36be f537 723c
00000390: 6f1e 1b3e eb3f b5bd 6495 803d 7ff7 bf3c
000003a0: d46e 673e 796f 203e e00e ddbd d5c1 f13b
000003b0: a271 15be beb1 1fbe aa5f b1bd af91 7a3e
000003c0: 9e2c 0f3d edcc 84bd c3bd 02bd 2931 093e
000003d0: c96f f3bd b608 96bc 854f 5cbd 64d2 223e
000003e0: 6f96 21be 51d9 12be 65c4 313e b7ba 2f3d
000003f0: 4696 08be a1bc c2bd 35ed 3abe ab18 3d3e

layer1.0.bias f4 [16]
-0.099216126 0.20922866 -0.07690021 -0.042135168 0.008231503 0.0038190272 -0.11199799 0.11742169
0.09896251 0.1919755 0.1462923 0.09392417 -0.09168701 -0.1636527 0.19564423 0.0549572
00000000: d331 cbbd 0a40 563e db7d 9dbd ed95 2cbd
00000010: 6ddd 063c a548 7a3b 345f e5bd c87a f03d
00000020: dbac ca3d 3a95 443e a6cd 153e 515b c03d
00000030: 66c6 bbbd 9394 27be f656 483e cd1a 613d

layer1.1.weight f4 [16]
0.905094 0.90659726 0.9836603 0.9237927 1.1578343 0.9362036 1.0024475 0.7924798
1.049017 1.2066401 0.99899375 0.974283 1.0136446 0.86252964 0.931795 0.8604391
00000000: 3eb4 673f c216 683f 29d1 7b3f ae7d 6c3f
00000010: ea33 943f 0aab 6f3f 3350 803f f5df 4a3f
00000020: 3046 863f 2f73 9a3f 0ebe 7f3f 9c6a 793f
00000030: 1bbf 813f bece 5c3f 1e8a 6e3f bd45 5c3f

layer1.1.bias f4 [16]
0.1111939 0.08087704 -0.025607314 -0.20290086 -0.17206223 -0.07403359 -0.12616967 -0.15543886
-0.0176908 -0.032392126 -0.11101967 -0.19572368 -0.000701111 0.020961368 -0.1257571 -0.16790196
00000000: a1b9 e33d dda2 a53d 6ec6 d1bc 3ec5 4fbe
00000010: 1531 30be ec9e 97bd 9f32 01be 5d2b 1fbe
00000020: 4cec 90bc 9bad 04bd 485e e3bd ca6b 48be
00000030: c3ca 37ba 2db7 ab3c 78c6 00be 7eee 2bbe

layer1.1.running_mean f4 [16]
0.14611255 0.2735775 -0.73016477 -0.23552714 -0.012175059 -0.12554385 -0.055159807 0.2925032
0.057166345 0.18569967 0.107777014 -0.2817346 -0.11482914 -0.124089494 0.4420985 0.49481508
00000000: 879e 153e 5a12 8c3e 14ec 3abf 072e 71be
00000010: e679 47bc 918e 00be 40ef 61bd fbc2 953e
00000020: 4227 6a3d 0e28 3e3e 32ba dc3d 843f 90be
00000030: 8a2b ebbd a222 febd bc5a e23e 6758 fd3e

layer1.1.running_var f4 [16]
0.021493264 0.0036501372 0.12929985 0.014540813 0.003595865 0.02135349 0.0070751053 0.011835502
0.0034006254 0.0014069619 0.0012668436 0.04273236 0.0054594576 0.0035547449 0.019741623 0.057052445
00000000: a412 b03c 2437 6f3b 2e67 043e 973c 6e3c
00000010: 9ba8 6b3b 84ed ae3c 49d6 e73b b2e9 413c
00000020: 07dd 5e3b cf69 b83a 380c a63a 2108 2f3d
00000030: 40e5 b23b b9f6 683b 2fb9 a13c d3af 693d

layer2.0.weight f4 [32, 16, 3, 3]
-0.099656045 -0.093249805 -0.050457533 -0.0057533635 -0.027920362 -0.0015328387 -0.105775945 -0.09175059
-0.011765679 0.055740442 0.0017675891 0.014700432 -0.018190091 -0.0032791502 0.09419838 0.05512558
0.08612012 0.06309514 0.04896215 0.030062445 0.05817666 0.09412457 0.08176369 0.21053322
0.09250542 -0.06508107 -0.065613404 -0.02868107 0.18550773 0.14068265 -0.026925845 0.065328926
0.10576016 0.10403405 -0.07792816 -0.14434543 0.085912205 0.112398244 0.18564922 0.11277677
0.06285496 -0.09793766 0.0045868168 -0.05375743 -0.17398787 -0.04607784 -0.20231414 -0.042635962
0.04738648 -0.024262937 0.065808184 -0.052985583 0.0938492 0.0022322931 -0.004541044 -0.022508148
-0.020331033 -0.013363956 0.11737386 -0.0151885 -0.08563837 0.085053734 -0.010923372 0.025567995
0.003527729 -0.0065720235 0.03419841 -0.0014355528 -0.028813612 0.0013969287 0.037808098 -0.0016779533
-0.13417205 -0.11681337 0.0028011815 -0.08306217 0.00906719 0.100874774 0.092634425 0.12356435
0.06910063 0.13339953 0.07658131 0.01667646 0.027123975 -0.029446125 -0.014062267 -0.10730372
-0.10126572 -0.090954915 -0.12778245 -0.1450874 -0.023390282 0.04939013 0.07958597 -0.042026
-0.0098995995 -0.063606456 -0.078595154 -0.056672916 0.11607909 0.07232496 0.059268214 0.1250638
0.024601843 -0.009437334 0.026143452 -0.0649283 0.0064284736 -0.0737908 -0.01811746 0.1325236
-0.011639002 -0.1148943 -0.05319835 -0.048505343 -0.13181151 0.060007315 -0.023232544 -0.060902584
-0.0346973 -0.090544455 -0.0036641983 -0.067018636 -0.0069454885 0.08926167 -0.04458305 -0.09742593
-0.013809703 0.044043113 -0.0041532964 0.08288761 -0.124496624 0.07212501 0.015984245 -0.031237863
0.04577356 0.04544143 -0.06705432 0.0075586094 -0.039502256 -0.08839972 -0.05586518 -0.054737538
0.04022402 0.0613371 0.068824165 -0.080311544 -0.035572097 0.00027662952 -0.06713305 -0.17106383
-0.0114339255 0.18122058 0.025193123 -0.04013754 0.016712807 -0.12152028 0.018003972 -0.09314806
-0.12958945 -0.11770138 0.014699953 -0.10609923 -0.039637145 -0.106378324 -0.094243325 -0.029635208
-0.028761974 0.08498208 0.09232623 0.039683137 -0.035673834 -0.07201968 -0.10765366 -0.050342098
-0.091925465 0.1214 0.07855928 0.07109771 -0.155309 0.03862979 0.00239385 0.04953982
0.09763208 -0.017734988 0.059601255 0.03696568 0.057636175 0.042935893 0.037615824 -0.07598524
-0.018693302 0.0009116685 0.09052915 0.016656222 0.023870414 -0.04521888 0.091121 -0.02758015
0.06495249 0.021621054 -0.022153514 -0.11982347 -0.090781555 0.008346677 0.03371416 0.0046846443
-0.02796426 0.053939216 0.04944079 -0.048640694 0.039344694 -0.013241039 -0.022212235 -0.07266879
0.123155326 0.0010236583 -0.022583587 0.10889019 -0.14519662 0.021729387 -0.08924192 -0.0087893875
-0.0034668297 0.012908706 -0.16963772 -0.09459315 -0.13300565 -0.15488705 -0.2200793 -0.0035151672
-0.012581918 -0.10309153 -0.07331255 0.08812576 0.116711475 -0.03067823 -0.040526427 0.04353089
0.12141929 0.07360303 0.005359068 -0.03169761 -0.114151135 -0.106208086 -0.00299493 -0.10148403
-0.08612756 0.09014586 -0.013951138 0.098663986 0.031061005 -0.06587507 -0.060603574 -0.09735936
00000000: 7818 ccbd c1f9 bebd 8fac 4ebd b686 bcbb
00000010: 3eb9 e4bc 88e9 c8ba 0fa1 d8bd bce7 bbbd
00000020: d6c4 40bc 1750 643d 73ae e73a 15da 703c
00000030: 6303 95bc 03e7 56bb 15eb c03d 5ccb 613d
00000040: bf5f b03d 0638 813d 898c 483d 8445 f63c
00000050: a64a 6e3d 62c4 c03d b973 a73d 0596 573e
00000060: 7b73 bd3d 3949 85bd 5260 86bd 90f4 eabc
00000070: bdf5 3d3e 1d0f 103e 9793 dcbc 2ccb 853d
00000080: c898 d83d ce0f d53d cd98 9fbd 4acf 13be
00000090: bdf2 af3d 0d31 e63d d41a 3e3e 82f7 e63d
000000a0: 1aba 803d 8a93 c8bd 024d 963b c030 5cbd
000000b0: e029 32be 1ebc 3cbd 702b 4fbe 0ca3 2ebd
000000c0: 5318 423d 11c3 c6bc 71c6 863d 6907 59bd
000000d0: 0234 c03d aa4b 123b 0acd 94bb 0263 b8bc
000000e0: 448d a6bc 7ef4 5abc b561 f03d 30d9 78bc
000000f0: 2b63 afbd a730 ae3d f1f7 32bc f973 d13c
00000100: 7931 673b 215a d7bb a213 0c3d 2929 bcba
00000110: 860a ecbc 2619 b73a aadc 1a3d c5ee dbba
00000120: 6664 09be d93b efbd 0794 373b 801c aabd
00000130: 8d8e 143c 6f97 ce3d 1eb7 bd3d 4e0f fd3d
00000140: a284 8d3d e399 083e a9d6 9c3d 129d 883c
00000150: 1933 de3c 0039 f1bc 6c65 66bc 0ec2 dbbd
00000160: 6764 cfbd 9246 babd 67d9 02be cb91 14be
00000170: fa9c bfbc 4e4d 4a3d f8fd a23d 7423 2cbd
00000180: ee31 22bc 1a44 82bd 7ff6 a0bd dc21 68bd
00000190: e0ba ed3d 1c1f 943d 3ac3 723d ba10 003e
000001a0: ce89 c93c 0c9f 1abc cb2a d63c 21f9 84bd
000001b0: f2a5 d23b a21f 97bd 116b 94bc 44b4 073e
000001c0: 83b1 3ebc b44d ebbd 83e6 59bd 8aad 46bd
000001d0: 99f9 06be 3bca 753d 2d52 bebc fd74 79bd
000001e0: c21e 0ebd 5f6f b9bd 0c23 70bb 1141 89bd
000001f0: fb96 e3bb d3ce b63d b79c 36bd 3f87 c7bd
00000200: 1842 62bc 8d66 343d 6018 88bb fbc0 a93d
00000210: 16f8 febd 47b6 933d 64f1 823c 8ce6 ffbc
00000220: 0e7d 3b3d cb20 3a3d c653 89bd 36ae f73b
00000230: 1ecd 21bd ea0a b5bd e3d2 64bd 7834 60bd
00000240: f1c1 243d 9c3c 7b3d aff3 8c3d 617a a4bd
00000250: 0cb4 11bd 9608 9139 0d7d 89bd 5b2b 2fbe
00000260: 5c55 3bbc e391 393e cf61 ce3c 4367 24bd
00000270: 4ce9 883c a0df f8bd 117d 933c 69c4 bebd
00000280: 19b3 04be 6c0d f1bd 12d8 703c 8e4a d9bd
00000290: 8f5a 22bd e1dc d9bd a502 c1bd 89c5 f2bc
000002a0: 3b9e ebbc 160b ae3d 8915 bd3d c98a 223d
000002b0: ba1e 12bd 0e7f 93bd 8679 dcbd 8433 4ebd
000002c0: 6b43 bcbd 90a0 f83d b0e3 a03d ad9b 913d
000002d0: 5309 1fbe 453a 1e3d 23e2 1c3b 44ea 4a3d
000002e0: 54f3 c73d f748 91bc 7220 743d 5369 173d
000002f0: e913 6c3d 8cdd 2f3d 0d13 1a3d 269e 9bbd
00000300: b222 99bc 0afd 6e3a 5967 b93d a172 883c
00000310: e38b c33c 6f37 39bd a69d ba3d c4ef e1bc
00000320: d005 853d a31e b13c 497b b5bc 0266 f5bd
00000330: aeeb b9bd 80c0 083c dc17 0a3d a581 993b
00000340: 4e15 e5bc 5eef 5c3d 6d82 4a3d 773b 47bd
00000350: e727 213d f1f0 58bc 6ff6 b5bc 60d3 94bd
00000360: dc38 fc3d 462c 863a 3701 b9bc d201 df3d
00000370: 6cae 14be d401 b23c 78c4 b6bd 5d01 10bc
00000380: c033 63bb 0a7f 533c 83b5 2dbe 0eba c1bd
00000390: a232 08be b69a 1ebe 785c 61be b85e 66bb
000003a0: 6424 4ebc a721 d3bd e424 96bd 477b b43d
000003b0: 6d06 ef3d e950 fbbc 0aff 25bd 724d 323d
000003c0: adaa f83d 2fbd 963d 1f9b af3b 5ad5 01bd
000003d0: 12c8 e9bd a083 d9bd 9646 44bb dcd6 cfbd
000003e0: a563 b0bd 659e b83d 5093 64bc 5810 ca3d
000003f0: a673 fe3c 82e9 86bd 743b 78bd 5864 c7bd

layer2.0.bias f4 [32]
-0.036496814 0.047269873 0.015141183 0.023628093 0.013006898 0.005229504 0.059888873 -0.055323362
0.04934181 -0.07740563 0.038250264 -0.009456937 -0.020143753 0.021919204 0.016777845 0.015450487
0.04055002 -0.07853629 0.015842017 -0.047549564 -0.044288784 -0.013410025 0.01235974 0.025792807
0.063014366 -0.008088031 0.005718738 -0.035333708 0.008089754 -0.059493244 0.06403256 0.017389093
00000000: af7d 15bd 0e9e 413d b912 783c b48f c13c
00000010: e21a 553c 425c ab3b 094e 753d c09a 62bd
00000020: a31a 4a3d d886 9ebd 4fac 1c3d 45f1 1abc
00000030: 8304 a5bc e78f b33c b171 893c 0a24 7d3c
00000040: c717 263d a2d7 a0bd 1ec7 813c 55c3 42bd
00000050: 2868 35bd b9b5 5bbc 8280 4a3c 704b d33c
00000060: ad0d 813d a983 04bc 4064 bb3b 14ba 10bd
00000070: e38a 043c 30af 73bd 8123 833d 9273 8e3c

layer2.1.weight f4 [32]
0.99237174 1.1056083 1.025001 0.9278934 1.0137433 0.9404636 0.9801286 0.96380526
0.9234628 0.9497982 0.9890126 1.0843041 0.95339304 0.9818549 0.8552231 0.8858724
1.016121 1.0098653 1.0605525 0.94744426 0.8675794 1.0307609 0.98971355 1.1198367
0.9680867 1.1098886 1.0374957 1.1206326 1.0383095 1.0275644 1.1452894 0.952812
00000000: 130c 7e3f 9384 8d3f 3c33 833f 6c8a 6d3f
00000010: 57c2 813f 39c2 703f b5e9 7a3f f1bb 763f
00000020: 0f68 6c3f fa25 733f ee2f 7d3f 7aca 8a3f
00000030: 9111 743f d85a 7b3f e7ef 5a3f 89c8 623f
00000040: 4110 823f 4443 813f 2fc0 873f b58b 723f
00000050: af19 5e3f f9ef 833f de5d 7d3f cf56 8f3f
00000060: 88d4 773f d410 8e3f a9cc 843f e470 8f3f
00000070: 53e7 843f 3b87 833f d898 923f 7deb 733f

layer2.1.bias f4 [32]
-0.19480853 0.0009752676 -0.007319026 -0.2243085 -0.07356221 -0.20507793 -0.20764008 -0.25486037
-0.2676698 -0.115021795 -0.33418742 -0.3152035 -0.3383895 -0.14342019 -0.17595 -0.1750736
-0.16627985 -0.20158297 -0.11302791 -0.09873542 -0.17193197 -0.099559985 -0.13882571 -0.0628366
-0.0611722 -0.11605207 -0.11098773 -0.019098781 -0.15086806 -0.15527774 -0.015530998 -0.1488599
00000000: e37b 47be 1aa9 7f3a 71d4 efbb 21b1 65be
00000010: c9a7 96bd f3ff 51be 9a9f 54be 0f7d 82be
00000020: 040c 89be 8c90 ebbd 9d1a abbe 5a62 a1be
00000030: 6341 adbe bedc 12be 3d2c 34be 7e46 33be
00000040: 4445 2abe c46b 4ebe 2d7b e7bd cc35 cabd
00000050: ef0e 30be 1be6 cbbd 5428 0ebe 7ab0 80bd
00000060: b38f 7abd b5ac edbd 894d e3bd 0c75 9cbc
00000070: 287d 1abe 2101 1fbe ba75 7ebc bb6e 18be

layer2.1.running_mean f4 [32]
-0.09034807 -0.8309523 -0.8858651 0.3604903 -0.38329822 2.4467936 -0.80358493 2.2695508
0.3036845 -0.976226 -0.3201787 -0.68422145 1.1249242 -0.166893 0.10656482 -0.011578252
-0.1775171 -0.73110235 -0.53310233 -0.4147992 0.4391147 -0.31905493 -0.3902262 -0.8891766
-0.23052363 -0.6181101 -0.62810785 -1.0057933 -0.48921663 -1.1731321 -1.210474 -0.23636451
00000000: 6908 b9bd 4ab9 54bf 0ec8 62bf 2f92 b83e
00000010: aa3f c4be 4498 1c40 beb7 4dbf 5240 1140
00000020: 897c 9b3e f2e9 79bf 76ee a3be 2329 2fbf
00000030: 84fd 8f3f 00e6 2abe a83e da3d b5b2 3dbc
00000040: 0bc7 35be 8629 3bbf 6579 08bf 9060 d4be
00000050: a4d3 e03e 2b5b a3be bacb c7be 14a1 63bf
00000060: 630e 6cbe 773c 1ebf adcb 20bf d6bd 80bf
00000070: 9a7a fabe 3129 96bf d0f0 9abf 8a09 72be

layer2.1.running_var f4 [32]
0.81291616 1.1836863 1.6781921 0.511503 0.6990454 1.7825614 0.849519 1.8853871
1.4380851 1.1775156 1.2634428 0.55891114 1.0580941 0.5663126 0.90707433 0.52222776
1.0030206 1.2983778 0.9567075 0.9135225 1.0716196 0.63313013 0.8821195 0.8495649
0.59405184 0.49300084 0.9449083 0.70079577 0.7048218 1.0335262 1.0628045 0.8923317
00000000: 461b 503f 0883 973f 00cf d63f dcf1 023f
00000010: a4f4 323f f92a e43f 147a 593f 5d54 f13f
00000020: 2c13 b83f d5b8 963f 7eb8 a13f cd14 0f3f
00000030: a16f 873f ddf9 103f 0636 683f b8b0 053f
00000040: fb62 803f 3e31 a63f c8ea 743f 9cdc 693f
00000050: d52a 893f d114 223f 95d2 613f 167d 593f
00000060: c813 183f 9b6a fc3e 83e5 713f 5a67 333f
00000070: 346f 343f 964a 843f fa09 883f da6f 643f

layer3.0.weight f4 [64, 32, 3, 3]
0.0474873 0.12579264 -0.014044646 -0.035037294 -0.1290789 -0.14758968 -0.062208965 0.043709096
-0.053067043 -0.009999962 -0.033382457 0.14669198 0.050992724 0.07271622 0.1041592 -0.03906589
-0.12466358 -0.021034762 -0.0063168146 0.026446732 -0.07016796 -0.04481265 0.01824656 0.014509807
-0.0013280376 -0.004147014 0.053391982 -0.1038348 0.10315946 0.090153985 0.10171169 0.0424431
0.07963482 0.017823279 0.019024733 0.076779425 0.018990442 0.032122184 -0.026498072 0.11179987
0.073314734 0.018377047 0.13789546 -0.08281149 0.06618834 0.02041821 0.055617318 0.033269014
-0.047177255 -0.0749915 -0.05063202 0.046014458 0.055617042 -0.09033289 0.10322255 0.03474029
-0.11941203 0.054268572 -0.19004583 -0.070532225 0.08205721 0.06041899 0.05868097 -0.09903032
-0.060101256 -0.1259737 0.06065397 -0.048531286 0.002545712 -0.032994594 -0.042134322 0.008601056
0.0054997224 0.069598936 -0.060713004 0.050301228 0.08614962 -0.04442113 -0.12162893 0.010718999
-0.06978476 0.08984472 -0.061437212 -0.04939935 0.123142265 0.019615488 -0.0459445 0.0072205383
0.0327742 0.06624783 -0.084417954 -0.13610545 -0.16257815 -0.025105502 0.059249185 -0.07191859
-0.0036564341 -0.1490047 0.019197635 -0.0038362402 0.064239524 -0.0066436552 0.07255314 0.009713264
0.028969107 0.081658095 0.057386536 -0.1005255 0.083400294 0.09795069 0.048322596 -0.061516717
-0.14422394 -0.010778844 0.00729151 -0.07973392 -0.017777612 -0.09615716 -0.015536053 -0.08442275
-0.12264943 -0.093648896 -0.023050275 0.029069826 0.0032398182 0.046967503 -0.034803186 -0.04809475
-0.022354484 0.08861588 -0.0073584174 0.06284723 0.11225187 -0.015826566 -0.0031629205 -0.08109178
-0.028939323 0.03640406 -0.027198398 -0.095692605 0.09884755 0.013727993 0.028346907 0.018335672
-0.056563683 0.0042000976 -0.030966617 -0.05784686 0.005305245 0.15678409 -0.109617546 -0.20855433
0.005311861 -0.09800072 -0.03092824 0.023040565 -0.089075826 -0.01762968 0.06540297 0.047561806
-0.032469697 -0.09382863 0.08054141 -0.06387764 -0.1109905 0.04242601 0.07440101 -0.02343835
-0.10547419 -0.006188308 0.003143714 -0.080371685 -0.108779654 0.04312486 0.09981629 -0.14619152
0.00895347 0.061856613 -0.03952686 -0.15628247 -0.114593744 -0.048684664 -0.16710554 0.14405966
0.028803544 0.02542226 -0.03371629 -0.1848051 -0.050576277 -0.02933851 0.014661457 -0.08847247
0.10411181 -0.074852355 0.1387158 -0.06616275 -0.15781325 -0.038139053 -0.16790272 -0.00023696329
-0.02828911 0.022450436 0.012838057 -0.025349153 -0.074696556 0.0023497504 0.05286728 -0.04661612
-0.16236542 -0.055449165 0.0423643 0.100337 -0.027884122 0.017005196 -0.036984097 -0.03851343
0.059817854 0.007542449 0.012898603 -0.04343974 0.033418544 0.13841012 0.08647737 0.029263388
0.109220624 0.017405903 -0.056687113 -0.052869353 0.079013735 -0.016710287 0.16845596 -0.017247565
-0.19586039 0.013963846 0.09048812 0.035255756 0.04558969 -0.05437588 -0.10879908 0.26229793
-0.1151655 -0.091491885 0.03374869 -0.0056567574 -0.14914788 0.07283453 -0.12379898 -0.03427799
-0.13244908 -0.0068457113 -0.005159757 -0.0066056103 -0.12638469 0.07352877 -0.048766747 0.16444245
00000000: 0b82 423d c9cf 003e 841b 66bc 4483 0fbd
00000010: 422d 04be c021 17be d4ce 7ebd 4f08 333d
00000020: d45c 59bd e1d6 23bc 0bbc 08bd 6c36 163e
00000030: bfdd 503d 3eec 943d 6b51 d53d 8e03 20bd
00000040: 9e4f ffbd 1851 acbc 48fd cebb d1a6 d83c
00000050: 38b4 8fbd 788d 37bd cf79 953c 8bba 6d3c
00000060: 8c11 aeba ade3 87bb 8db1 5a3d 57a7 d4bd
00000070: 4445 d33d a7a2 b83d 384e d03d d1d8 2d3d
00000080: 9517 a33d 2002 923c c2d9 9b3c 883e 9d3d
00000090: d891 9b3c 8d92 033d 7c12 d9bc 55f7 e43d
000000a0: 0926 963d 768b 963c 7834 0d3e 1299 a9bd
000000b0: c18d 873d 1744 a73c fcce 633d 1745 083d
000000c0: f03c 41bd 2595 99bd 8563 4fbd a879 3c3d
000000d0: b2ce 633d 7300 b9bd 5866 d33d d64b 0e3d
000000e0: 4b8e f4bd b948 5e3d 609b 42be 3373 90bd
000000f0: 9c0d a83d e779 773d 755b 703d 69d0 cabd
00000100: bc2c 76bd 40ff 00be 4c70 783d bec8 46bd
00000110: f6d5 263b 5725 07bd 0a95 2cbd 72eb 0c3c
00000120: 0437 b43b e389 8e3d 33ae 78bd a908 4e3d
00000130: 366f b03d eef2 35bd 9718 f9bd be9e 2f3c
00000140: 50eb 8ebd 8200 b83d 96a5 7bbd f956 4abd
00000150: 0332 fc3d a9b0 a03c 4d30 3cbd 449a ec3b
00000160: 3d3e 063d f1ac 873d 52e3 acbd 3a5f 0bbe
00000170: e37a 26be 0eaa cdbc 46af 723d 0e4a 93bd
00000180: c9a0 6fbb b094 18be 5c44 9d3c 6e69 7bbb
00000190: 0390 833d 05b3 d9bb be96 943d 6224 1f3c
000001a0: 9f50 ed3c 5c3c a73d 250e 6b3d 50e0 cdbd
000001b0: c6cd aa3d 5f9a c83d eaed 453d f4f8 7bbd
000001c0: 71af 13be c099 30bc 9eed ee3b 8a4b a3bd
000001d0: 5ba2 91bc 0cee c4bd ee8a 7ebc d6e5 acbd
000001e0: a02f fbbd feca bfbd eed3 bcbc d823 ee3c
000001f0: 2153 543b ff60 403d c98d 0ebd 00ff 44bd
00000200: c020 b7bc 3e7c b53d e11e f1bb 0cb6 803d
00000210: 4fe4 e53d b7a6 81bc 0049 4fbb 7213 a6bd
00000220: 2912 edbc 6c1c 153d 2dcf debc 7cfa c3bd
00000230: 9670 ca3d 60eb 603c c637 e83c b134 963c
00000240: 52af 67bd f9a0 893b b4ad fdbc d4f0 6cbd
00000250: 9fd7 ad3b 028c 203e 2a7f e0bd 448f 55be
00000260: 1f0f ae3b 9ab4 c8bd 385d fdbc 91bf bc3c
00000270: 636d b6bd 1e6c 90bc fef1 853d 2bd0 423d
00000280: f2fe 04bd 3a29 c0bd e5f2 a43d 48d2 82bd
00000290: fd4e e3bd e5c6 2d3d 8f5f 983d c801 c0bc
000002a0: da02 d8bd 4ac7 cabb c506 4e3b e999 a4bd
000002b0: dec7 debd b1a3 303d 7c6c cc3d 3bb3 15be
000002c0: 93b1 123c 5c5d 7d3d ebe6 21bd 8308 20be
000002d0: 20b0 eabd 9269 47bd b71d 2bbe 6084 133e
000002e0: 69f5 eb3c 5842 d03c 181a 0abd 8c3d 3dbe
000002f0: 1229 4fbd 5157 f0bc 9c36 703c 0e31 b5bd
00000300: 9338 d53d 314c 99bd 840b 0e3e 5680 87bd
00000310: cc99 21be b237 1cbd b1ee 2bbe 5979 78b9
00000320: 90be e7bc fae9 b73c b756 523c 07a9 cfbc
00000330: 82fa 98bd 45fe 193b 5c8b 583d 8bf0 3ebd
00000340: 1f43 26be aa1e 63bd 3086 2d3d 7c7d cd3d
00000350: 3e6d e4bc 7b4e 8b3c a37c 17bd 42c0 1dbd
00000360: 9103 753d a626 f73b aa54 533c deed 31bd
00000370: e2e1 083d 62bb 0d3e 0c1b b13d c6b9 ef3c
00000380: 10af df3d d396 8e3c bf30 68bd 898d 58bd
00000390: f4d1 a13d 03e4 88bc b87f 2c3e c44a 8dbc
000003a0: a08f 48be 9dc8 643c d651 b93d 5768 103d
000003b0: 41bc 3a3d 3eb9 5ebd 0dd2 debd ea4b 863e
000003c0: e4db ebbd 1960 bbbd 113c 0a3d 525c b9bb
000003d0: 39ba 18be 452a 953d 528a fdbd 1467 0cbd
000003e0: bba0 07be fd51 e0bb 2e13 a9bb e073 d8bb
000003f0: fd6a 01be 4096 963d a4bf 47bd 9a63 283e

layer3.0.bias f4 [64]
0.026323805 0.0733827 0.00180582 -0.0326434 0.031166889 0.016805131 0.030467696 -0.0035859512
-0.034622908 -0.032972015 0.018862193 0.029669803 -0.04218317 0.0015636324 -0.0015712782 -0.0016745329
0.018053742 -0.050966553 -0.05858456 0.051438183 0.05130314 0.021094004 0.06748552 -0.042094532
0.04114497 -0.017812856 0.018733189 -0.04699164 0.04861305 -0.005071521 0.044263825 0.022308147
-0.023038292 -0.008431397 0.0051511903 0.01762121 0.008462544 0.017286763 0.008452137 -0.017399533
0.021983394 -0.0010024662 -0.015129989 -0.018801132 0.058036502 0.04381935 0.06666861 -0.016787173
-0.056136873 -0.03436292 0.02011572 -0.0169532 -0.009837659 0.036158003 -0.03502696 0.010253266
-0.030336699 0.0019080762 0.04244329 0.036741443 0.056238934 0.039190564 -0.053122696 -0.025572201
00000000: 05a5 d73c ab49 963d 44b1 ec3a 16b5 05bd
00000010: b451 ff3c eaaa 893c 6497 f93c 4702 6bbb
00000020: c0d0 0dbd aa0d 07bd e384 9a3c 160e f33c
00000030: 42c8 2cbd ccf2 cc3a 59f3 cdba 007c dbba
00000040: 71e5 933c 4ec2 50bd 5df6 6fbd d8b0 523d
00000050: 3e23 523d 55cd ac3c d935 8a3d 516b 2cbd
00000060: a187 283d 44ec 91bc 5876 993c 4e7a 40bd
00000070: 7a1e 473d 002f a6bb fc4d 353d 93bf b63c
00000080: cdba bcbc d823 0abc 51cb a83b 5b5a 903c
00000090: 7ba6 0a3c f89c 8d3c d57a 0a3c 7789 8ebc
000000a0: 8516 b43c 2f65 83ba c6e3 77bc d504 9abc
000000b0: afb7 6d3d eb7b 333d 8d89 883d 4185 89bc
000000c0: c7ef 65bd 22c0 0cbd b9c9 a43c 70e1 8abc
000000d0: 222e 21bc 6a1a 143d 6e78 0fbd 51fd 273c
000000e0: ab84 f8bc 6a18 fa3a 04d9 2d3d 327e 163d
000000f0: cc5a 663d 4986 203d 2f97 59bd cb7c d1bc

layer3.1.weight f4 [64]
1.1592407 1.1077331 1.1474063 1.109707 1.0449828 1.0705719 1.155047 1.1430635
1.0531952 1.0795786 1.1141076 1.2639924 1.1151296 1.138303 1.0981331 1.2074412
1.1617341 1.0939243 1.0552516 1.0594665 1.1321709 1.0311482 1.2135472 1.1264733
1.099104 1.2896289 1.1452143 1.2336963 1.1030545 1.1460443 1.0313753 1.0796694
1.110492 1.0924921 1.0477529 1.1583714 1.0434469 1.0208966 1.0646125 1.0882263
1.1415011 1.0837395 1.0991261 1.3404955 1.0934471 1.1378373 1.205924 1.0729485
1.2077059 1.1123997 1.1557705 1.1921701 1.0648891 1.0496184 1.2252109 1.0893785
1.0954888 1.1023141 1.2561165 1.0885836 1.1916162 1.1803359 1.0273464 1.0466542
00000000: 0062 943f 33ca 8d3f 36de 923f e10a 8e3f
00000010: ffc1 853f 8008 893f 95d8 933f e84f 923f
00000020: 1acf 863f a22f 8a3f 149b 8e3f 81ca a13f
00000030: 91bc 8e3f eab3 913f a08f 8c3f 6f8d 9a3f
00000040: b4b3 943f b605 8c3f 7c12 873f 999c 873f
00000050: faea 903f aafc 833f 8455 9b3f 4730 903f
00000060: 71af 8c3f 8f12 a53f 6296 923f c3e9 9d3f
00000070: e430 8d3f 94b1 923f 1b04 843f 9b32 8a3f
00000080: 9a24 8e3f c8d6 8b3f c41c 863f 8445 943f
00000090: ab8f 853f bdac 823f 3945 883f 004b 8b3f
000000a0: b51c 923f fab7 8a3f 2ab0 8c3f 5b95 ab3f
000000b0: 13f6 8b3f a7a4 913f b85b 9a3f 6056 893f
000000c0: 1b96 9a3f 1d63 8e3f 4af0 933f 0899 983f
000000d0: 494e 883f e559 863f b6d3 9c3f c170 8b3f
000000e0: fa38 8c3f a118 8d3f 6dc8 a03f b556 8b3f
000000f0: e186 983f 3f15 973f 1680 833f c4f8 853f

layer3.1.bias f4 [64]
-0.24178128 -0.0964114 -0.080710426 -0.06756968 -0.052370194 -0.072317325 -0.34856117 -0.1472275
-0.13349254 -0.0821077 -0.12587832 -0.16198346 -0.06790223 -0.16065708 -0.0667651 -0.062117755
-0.21758696 -0.105810374 -0.09128607 -0.03178092 -0.0829541 -0.055116218 -0.22877775 -0.1193405
-0.084460415 -0.24974552 -0.23315984 -0.19301528 -0.15564738 -0.06102915 -0.097118534 -0.038972076
-0.07054051 -0.019501172 -0.080890894 -0.03189513 -0.08294263 -0.08078357 -0.077576175 -0.24929312
-0.08740424 -0.124586456 -0.11898949 -0.13136473 -0.031149479 -0.2705087 -0.073461115 -0.09956288
-0.074661896 -0.021326663 -0.12796457 -0.12051661 -0.046325814 -0.060542986 -0.089050286 -0.098063365
-0.09252874 -0.10440259 -0.15787838 -0.07948985 -0.17338198 -0.10273251 -0.04919345 -0.038336854
00000000: 8395 77be 5773 c5bd 824b a5bd f961 8abd
00000010: 2182 56bd 1b1b 94bd 9c76 b2be cec2 16be
00000020: 45b2 08be 1528 a8bd 3fe6 00be fede 25be
00000030: 5310 8bbd 4a83 24be 24bc 88bd 306f 7ebd
00000040: 1ecf 5ebe 1cb3 d8bd 31f4 babd b62c 02bd
00000050: d7e3 a9bd 8bc1 61bd b744 6abe cb68 f4bd
00000060: 95f9 acbd 4abd 7fbe 74c1 6ebe cca5 45be
00000070: 0762 1fbe b4f9 79bd 15e6 c6bd 2fa1 1fbd
00000080: 8b77 90bd ecc0 9fbc 20aa a5bd 78a4 02bd
00000090: d3dd a9bd db71 a5bd 42e0 9ebd b246 7fbe
000000a0: ff00 b3bd 2f27 ffbd c3b0 f3bd 7a84 06be
000000b0: 312d ffbc 1e80 8abe c872 96bd a0e7 cbbd
000000c0: 56e8 98bd 41b5 aebc 2509 03be 6ad1 f6bd
000000d0: 23c0 3dbd ecfb 77bd ff5f b6bd 72d5 c8bd
000000e0: b57f bdbd 06d1 d5bd dfaa 21be 93cb a2bd
000000f0: 0c8b 31be 6c65 d2bd 127f 49bd 1b07 1dbd

layer3.1.running_mean f4 [64]
-1.0135969 0.09527395 0.23532258 -0.26614186 1.6099745 -1.0897884 -0.66238314 -1.027094
-1.6980312 1.1579828 0.010532213 -1.1170768 0.2056865 1.0746384 0.5887436 -0.013184774
0.041225947 -0.63324165 1.3146408 -0.42514217 0.5578735 1.7186421 -0.5018843 0.86717594
-0.5458483 -1.3420666 -0.3852502 -1.6301775 -0.54793245 -0.4503635 0.9280317 0.3577404
0.459272 0.3568186 -0.41620326 -0.15313797 -0.94020855 -1.7009451 -0.059644256 -0.54436475
0.35503802 0.9263789 -0.04837602 -1.0010673 -0.047369245 -0.21878086 -0.26031893 -0.6368661
-0.41584873 -0.84705704 -0.70623815 0.114144385 0.32333124 -1.9080166 -0.095845774 1.3223116
-0.5885516 -0.7588289 0.30871898 0.6897163 0.1149517 0.021486819 -2.8990111 0.1839699
00000000: 8bbd 81bf fd1e c33d 67f8 703e bf43 88be
00000010: a513 ce3f 307e 8bbf f191 29bf d177 83bf
00000020: 1659 d9bf c838 943f 4e8f 2c3c 5ffc 8ebf
00000030: 7b9f 523e c08d 893f e7b7 163f f304 58bc
00000040: 8adc 283d 201c 22bf 2646 a83f 3cac d9be
00000050: ccd0 0e3f 77fc db3f 7d7b 00bf 3eff 5d3f
00000060: b7bc 0bbf d7c8 abbf 843f c5be a8a9 d0bf
00000070: 4d45 0cbf 0b96 e6be 7c93 6d3f c029 b73e
00000080: b325 eb3e edb0 b63e 9818 d5be 33d0 1cbe
00000090: 82b1 70bf 92b8 d9bf 894d 74bd 7d5b 0bbf
000000a0: 8bc7 b53e 2b27 6d3f ef25 46bd f922 80bf
000000b0: 4106 42bd 1708 60be 8648 85be a809 23bf
000000c0: 20ea d4be bbd8 58bf 06cc 34bf 88c4 e93d
000000d0: ac8b a53e e339 f4bf ca4a c4bd 8241 a93f
000000e0: 51ab 16bf 9c42 42bf 6a10 9e3e 3f91 303f
000000f0: cc6b eb3d 2005 b03c 6689 39c0 9b62 3c3e

layer3.1.running_var f4 [64]
0.93722296 1.1806159 0.7124329 1.102827 1.167094 1.309523 0.82802606 1.1006256
1.3223974 1.1720986 0.7718606 0.98520875 0.88541925 0.8740342 1.1867148 0.8086746
0.7717569 0.917322 1.1422728 0.9960908 0.659139 0.96862197 1.0018926 0.91384375
1.1603401 1.0766544 1.0357294 1.0120288 1.1934704 1.0744113 1.2483776 0.77549124
0.88555545 0.99891 1.2594304 1.1126045 1.1465857 1.343981 1.2864017 0.7531997
1.1174674 1.1208141 1.2508532 1.1155798 0.8982546 1.1100302 0.80449915 1.2018746
0.9508261 0.97582394 0.86030316 0.78103137 0.7622527 1.104322 0.9699924 1.1989487
1.1878495 1.2502644 0.8333554 0.99930036 0.7536186 0.75398344 1.6927094 0.8191154
00000000: d8ed 6f3f 6c1e 973f 0162 363f 6f29 8d3f
00000010: 5663 953f 739e a73f 84f9 533f 4de1 8c3f
00000020: 5144 a93f 5407 963f a898 453f a436 7c3f
00000030: d6aa 623f b5c0 5f3f 45e6 973f 4c05 4f3f
00000040: dc91 453f 9dd5 6a3f ff35 923f cfff 7e3f
00000050: 55bd 283f 9cf7 773f 043e 803f aaf1 693f
00000060: 0686 943f d0cf 893f c892 843f 298a 813f
00000070: a3c3 983f 4f86 893f d6ca 9f3f 9886 463f
00000080: c3b3 623f 91b8 7f3f 0435 a13f d369 8e3f
00000090: 52c3 923f 9207 ac3f d0a8 a43f b2d1 403f
000000a0: 2c09 8f3f d676 8f3f f51b a03f 52cb 8e3f
000000b0: 03f4 653f 7815 8e3f a8f3 4d3f 07d7 993f
000000c0: 5769 733f 99cf 793f d43c 5c3f acf1 473f
000000d0: fe22 433f 6c5a 8d3f 6c51 783f 2777 993f
000000e0: 740b 983f aa08 a03f c856 553f 26d2 7f3f
000000f0: 26ed 403f 0f05 413f b4aa d83f 8cb1 513f

fc1.weight f4 [10, 576]
0.02537413 -0.05710346 0.0435394 -0.06282413 0.10643851 0.03422708 -0.0062398803 -0.017612226
-0.09756403 0.04610209 0.0038119555 -0.015751569 0.036976352 0.07103005 0.24246596 0.06007941
-0.022068923 0.021951843 -0.026561145 0.046193942 -0.055744447 0.017847484 -0.07851596 -0.010299144
0.013449183 -0.038855527 -0.13632421 0.08870508 0.052220903 -0.029038437 0.007484864 0.1408387
-0.1419384 -0.109808214 -0.046630584 -0.031628467 -0.06258921 -0.089369915 -0.13866383 -0.19373284
-0.06763365 -0.05117097 -0.010803732 -0.09208597 -0.09547163 0.10306591 -0.04463272 -0.11789218
0.023382202 0.14121482 0.039303556 0.044788457 0.09966452 -0.018098263 -0.081811085 -0.098203205
-0.022221806 -0.011655355 -0.0633924 0.034467 0.026801566 0.13113464 -0.0020381121 -0.051240787
-0.07618338 0.022710422 -0.05314228 -0.04092416 0.089134365 0.003588454 -0.096428454 -0.08049795
0.023165787 0.14764403 0.08328991 -0.02988443 0.14329654 -0.016710097 0.009301743 0.12562464
0.03838686 -0.030186929 -0.017138172 0.058180857 0.10674107 0.06816032 0.09275765 -0.054718576
0.02729758 -0.022041347 0.10233244 0.0520831 0.01958074 -0.122764945 -0.027532801 0.079184905
0.043199178 -0.07148223 -0.10441929 -0.0552087 0.06034194 0.0017688243 0.1460883 0.14973763
0.054304123 -0.017323282 -0.014857367 0.09829327 -0.11816702 -0.06007906 0.06331173 -0.08055237
-0.09492008 0.04045968 0.03599199 -0.03361148 -0.049504165 0.11756297 -0.0070793144 -0.16077621
0.11391023 0.030932983 -0.050070964 0.009313043 0.080523394 -0.014513264 -0.11383692 -0.20781231
-0.055988 -0.020515421 0.001414567 0.12282654 -0.033377577 0.041832473 0.044333868 -0.17616235
0.034014244 0.13898519 0.049968693 -0.12072446 0.01994647 -0.010656568 -0.110913716 0.013307573
0.056120217 0.05005629 0.031468708 -0.004570692 -0.055776805 0.0071699065 0.05300905 -0.14984216
-0.025124675 0.048608456 -0.012639262 -0.037707526 0.006583178 0.034747053 0.0884238 0.06822884
-0.18068078 0.018572632 0.03572892 -0.03457585 -0.011733098 -0.12365719 -0.027142305 -0.0049377047
0.04601053 0.045022167 0.0225207 -0.22268565 -0.11584042 -0.0005535056 0.0033298614 -0.056929007
0.009025224 0.04418132 0.0039851917 -0.0026904445 0.12339495 0.0531182 -0.19032513 0.04768586
-6.1507155e-05 -0.013637045 -0.084905565 -0.05317899 -0.07569477 0.015180224 0.080998115 -0.028674277
-0.082344644 -0.091458976 -0.014994903 -0.039477065 -0.07926372 0.020637548 -0.020178404 -0.17446804
-0.085299835 0.07344164 0.009682442 0.018050367 0.0667419 0.08682419 0.055452496 0.05301641
0.12968464 0.043960225 -0.16883782 -0.02109515 -0.041489925 -0.08629237 -0.07713134 -0.054425895
0.008228225 -0.070065536 0.119460694 0.047974817 0.1381562 0.13332231 0.011815456 0.06212011
-0.094675116 0.02164931 -0.0030543846 0.110092446 0.020202171 0.121684514 0.1757872 -0.020047681
-0.065373704 0.03229197 -0.0039025692 -0.013316038 -0.0718525 0.016731936 -0.05128108 0.0014550309
0.06538048 0.01582927 0.12214363 0.020913526 0.006238116 -0.045224458 0.022276996 0.10296826
0.048220653 -0.04366778 0.08089078 0.03067403 -0.018800698 -0.041153796 -0.021303479 -0.055977814
00000000: 68dd cf3c 51e5 69bd 5f56 323d f0a9 80bd
00000010: 6ffc d93d b231 0c3d e977 ccbb 8447 90bc
00000020: a6cf c7bd 8cd5 3c3d 00d2 793b 6f09 81bc
00000030: 8474 173d 3478 913d ff48 783e d415 763d
00000040: e3c9 b4bc 5ad4 b33c c296 d9bc dc35 3d3d
00000050: 4a54 64bd e334 923c facc a0bd bebd 28bc
00000060: f659 5c3c f926 1fbd 9398 0bbe 02ab b53d
00000070: 96e5 553d 04e2 edbc 9743 f53b 0538 103e
00000080: 4d58 11be 21e3 e0bd b6ff 3ebd da8c 01bd
00000090: c62e 80bd 9307 b7bd e4fd 0dbe e761 46be
000000a0: 8383 8abd a798 51bd 2302 31bc 9297 bcbd
000000b0: a186 c3bd 3814 d33d cdd0 36bd 7571 f1bd
000000c0: 088c bf3c 9e9a 103e c4fc 203d 1a74 373d
000000d0: e91c cc3d cf42 94bc 928c a7bd c31e c9bd
000000e0: 810a b6bc 1af6 3ebc e0d3 81bd 452d 0d3d
000000f0: f58e db3c 2948 063e d991 05bb dce1 51bd
00000100: 0806 9cbd 350b ba3c b8ab 59bd 18a0 27bd
00000110: 148c b63d 452c 6b3b 487c c5bd 1cdc a4bd
00000120: 2dc6 bd3c ff2f 173e e693 aa3d 31d0 f4bc
00000130: 54bc 123e 9de3 88bc 5666 183c bfa3 003e
00000140: 8a3b 1d3d 944a f7bc 5a65 8cbc 0d4f 6e3d
00000150: 109b da3d a397 8b3d b9f7 bd3d 9620 60bd
00000160: 2d9f df3c 0e90 b4bc ac93 d13d 1755 553d
00000170: ca67 a03c 306c fbbd 788c e1bc b22b a23d
00000180: 9ff1 303d 4765 92bd c8d9 d5bd 8522 62bd
00000190: 1c29 773d e5d7 e73a 2c98 153e d254 193e
000001a0: 006e 5e3d 8ee9 8dbc 506c 73bc fb4d c93d
000001b0: 8d01 f2bd 7615 76bd 95a9 813d a4f8 a4bd
000001c0: 7565 c2bd 0db9 253d 566c 133d 31ac 09bd
000001d0: e1c4 4abd dbc4 f03d 98f9 e7bb 85a2 24be
000001e0: c449 e93d 2b67 fd3c 3617 4dbd bc95 183c
000001f0: 73e9 a43d 0bc9 6dbc 5523 e9bd c0cc 54be
00000200: ac53 65bd f50f a8bc fe68 b93a 7b8c fb3d
00000210: edb6 08bd 8758 2b3d 6e97 353d e763 34be
00000220: 8552 0b3d 2252 0e3e f9ab 4c3d 633e f7bd
00000230: c866 a33c e398 2ebc bb26 e3bd 0208 5a3c
00000240: 50de 653d d307 4d3d 55e5 003d bec5 95bb
00000250: 3876 64bd 89f1 ea3b 0520 593d 3970 19be
00000260: 43d2 cdbc a919 473d e814 4fbc 3573 1abd
00000270: b3b7 d73b ed52 0e3d 8a17 b53d 90bb 8b3d
00000280: 6204 39be a225 983c 7d58 123d 689f 0dbd
00000290: 2e3c 40bc fb3f fdbd 8a59 debc 78cc a1bb
000002a0: 8a75 3c3d 2a69 383d 557d b83c b507 64be
000002b0: be3d edbd 2219 11ba ce39 5a3b 642e 69bd
000002c0: 88de 133c 79f7 343d 3696 823b 2b52 30bb
000002d0: 7eb6 fc3d 7892 593d 97e4 42be 4052 433d
000002e0: 67fd 80b8 ea6d 5fbc f8e2 adbd 36d2 59bd
000002f0: dc05 9bbd 79b6 783c 57e2 a53d 51e6 eabc
00000300: 4fa4 a8bd d84e bbbd 2ead 75bc b4b2 21bd
00000310: 0455 a2bd 1310 a93c 2e4d a5bc c0a7 32be
00000320: aeb1 aebd 9268 963d 1ba3 1e3c 5dde 933c
00000330: faaf 883d e2d0 b13d 2822 633d bc27 593d
00000340: 0dcc 043e a30f 343d d2e3 2cbe bccf acbc
00000350: 57f1 29bd 0eba b0bd 09f7 9dbd b0ed 5ebd
00000360: adcf 063c 857e 8fbd cfa7 f43d 3e81 443d
00000370: d278 0d3e a585 083e 9d95 413c a871 7e3d
00000380: 07e5 c1bd e559 b13c 122c 48bb 2678 e13d
00000390: 067f a53c bb35 f93d 8f01 343e 093b a4bc
000003a0: a6e2 85bd 9644 043d 3fc2 7fbb 832b 5abc
000003b0: 6727 93bd 6a11 893c 1c0c 52bd bcb6 be3a
000003c0: 33e6 853d 63ac 813c 7126 fa3d d852 ab3c
000003d0: 1c69 cc3b 483d 39bd 3f7e b63c 06e1 d23d
000003e0: 0583 453d fcdc 32bd 11aa a53d 1a48 fb3c
000003f0: ec03 9abc e290 28bd a284 aebc fe48 65bd

fc1.bias f4 [10]
-0.002979491 -0.02095873 -0.045404654 0.021971827 -0.045527864 0.011925783 -0.04569665 -0.006129097
0.05924719 0.025231952
00000000: 9043 43bb a4b1 abbc 3bfa 39bd 43fe b33c
00000010: 6d7b 3abd 5c64 433c 692c 3bbd 98d6 c8bb
00000020: 2ead 723d 3db3 ce3c

fc2.weight f4 [2, 10]
-0.5531307 -0.2077282 -0.60264546 0.24186628 -0.05585654 0.008163854 0.14888225 -0.46458754
0.34767395 -0.004717002 0.57069004 0.4495467 0.64978933 -0.10912191 0.17439564 -0.5176232
0.12061693 0.32832205 -0.17940032 -0.4220723
00000000: f999 0dbf b4b6 54be f946 1abf cbab 773e
00000010: d4c9 64bd afc1 053c 9774 183e 6bde edbe
00000020: 5202 b23e 1591 9abb be18 123f fc2a e63e
00000030: 9858 263f 4f7b dfbd c594 323e f482 04bf
00000040: 0206 f73d d419 a83e b8b4 37be dc19 d8be

fc2.bias f4 [2]
0.15829036 -0.31448936
00000000: de16 223e c004 a1be

exp_avg f4 [16, 3, 3, 3]
0.0002904954 0.00035883943 0.00097028335 0.00043131452 -0.00050891784 0.00061111996 0.00036213102 0.0003150802
0.002463361 0.00025413738 5.4035514e-05 0.00016249609 0.00029066904 -0.0010091363 -0.00047986102 4.6078807e-05
-0.0004145959 0.0011964747 0.0013873947 0.0011817386 0.0009742773 0.0017042509 0.00051651365 0.00095385395
0.001379387 0.0012732598 0.0027256182 0.002161806 0.00087224273 0.0019414641 0.00065148086 0.0016764408
0.0025287753 0.003106263 -0.0021340435 -0.0053813877 -1.0685049e-05 -0.0012727974 -0.0007821968 -0.002723835
-0.0018767169 -0.001366283 -0.0013435567 -0.0067301863 -0.009864692 0.0027439033 0.001266663 0.0017315845
-0.00082049926 0.0007316152 0.0015619397 -1.4614269e-05 -0.004536339 -0.0070881243 -0.0023503194 -0.0015262086
-0.0004353521 -0.0022454166 -0.0018923888 -0.00088567304 -0.0027178784 -0.0025874544 -0.001400091 -0.00033275213
0.00010713232 0.0009671165 -0.00010421072 -0.00018316766 0.0005592749 -0.0005833234 -0.000776293 6.61216e-05
0.00041066672 0.0009391256 0.0018552288 0.0005451622 0.0005907152 0.001342242 1.6693855e-06 -5.7393918e-05
0.0007803857 -0.002886631 -0.0015578945 0.0013052969 -0.0023232945 -0.0031233893 -0.0006671423 -0.0021822664
-0.0023069172 -0.0015083699 -0.0056101475 -0.0045503373 -0.0023219828 -0.004313424 -0.0054287226 -0.0037526349
-0.0043599172 -0.0047371997 -0.0049080406 -0.008775145 -0.007962212 -0.005764733 -0.007015984 -0.0081097605
-0.0067811008 -0.006571895 -0.0068243635 -0.007153946 -0.059507474 -0.059217118 -0.057303194 -0.053171463
-0.05141136 -0.052379206 -0.05175385 -0.046126086 -0.046781246 -0.061896533 -0.06170823 -0.059573166
-0.056161135 -0.05503865 -0.055138968 -0.056532793 -0.051583722 -0.05213497 -0.056690287 -0.05617022
-0.054633994 -0.052446436 -0.050705057 -0.051193424 -0.05396933 -0.048971888 -0.048715703 -0.006175245
-0.0043783435 -0.0019281735 -0.004715735 -0.0032977003 -0.00048539136 -0.0026154644 -0.0011881846 0.0010394854
-0.0013355745 0.0001407323 0.0019685987 0.00022663875 0.001168307 0.0035995548 0.0020264671 0.003148832
0.0051729097 -0.0050432915 -0.0040134513 -0.0024215393 -0.004035835 -0.003473189 -0.001274917 -0.002570978
-0.0017942309 -9.107755e-06 -0.023144875 -0.017441195 -0.013118561 -0.020949421 -0.011621557 -0.00929654
-0.0189246 -0.011439537 -0.013442936 -0.02392462 -0.017809084 -0.013100163 -0.02277715 -0.013012136
-0.010247999 -0.021119228 -0.012946764 -0.014337108 -0.02637998 -0.020598572 -0.016358007 -0.02587088
-0.016584659 -0.0140416995 -0.02491108 -0.017314393 -0.01886021 -0.008427207 -0.008329593 -0.009126803
-0.0063000787 -0.007196978 -0.007428123 -0.006171602 -0.0069230273 -0.0074489564 -0.01182142 -0.011987984
-0.01289097 -0.009847137 -0.010898395 -0.011191079 -0.009962608 -0.010417034 -0.010947624 -0.012979829
-0.013051223 -0.0141672995 -0.01069335 -0.011716894 -0.012279148 -0.010638398 -0.011273149 -0.012077115
0.008437272 0.0065307827 0.009047922 0.009127839 0.012004201 0.010148836 0.0069166003 0.009413311
0.0073069045 -0.004726787 -0.007825426 -0.0059961155 -0.009032513 -0.0060453974 -0.007370955 -0.01348781
-0.011144602 -0.012008368 -0.009236962 -0.013818649 -0.015069846 -0.014343859 -0.013245847 -0.017026551
-0.019997565 -0.01937143 -0.021652339 0.109401755 0.101035595 0.100684196 0.10733791 0.099687904
0.09986123 0.1001249 0.09126471 0.08452042 0.1096077 0.1047268 0.099059075 0.11192257
00000000: a24d 9839 9d22 bc39 9d5a 7e3a 0e22 e239
00000010: e668 05ba 9133 203a 67dc bd39 5931 a539
00000020: 5770 213b be3d 8539 31a4 6238 b663 2a39
00000030: f064 9839 ff44 84ba db95 fbb9 be44 4138
00000040: 1f5e d9b9 07d3 9c3a 3ed9 b53a 91e4 9a3a
00000050: a566 7f3a 2c61 df3a a566 073a 0e0c 7a3a
00000060: 8ccc b43a 82e3 a63a 49a0 323b 16ad 0d3b
00000070: 38a7 643a ba78 fe3a 24c8 2a3a 05bc db3a
00000080: cfb9 253b 7292 4b3b 4fdb 0bbb 5a56 b0bb
00000090: f043 33b7 fed3 a6ba 570c 4dba 5e82 32bb
000000a0: 2bfc f5ba da14 b3ba 481a b0ba e588 dcbb
000000b0: 849f 21bc 0fd3 333b 2806 a63a 56f6 e23a
000000c0: c616 57ba ddc9 3f3a 00ba cc3a cf2f 75b7
000000d0: 92a5 94bb 7f43 e8bb d107 1abb 100b c8ba
000000e0: f83f e4b9 d727 13bb 080a f8ba 832c 68ba
000000f0: 6f1e 32bb 4892 29bb 4283 b7ba 3c75 aeb9
00000100: 3aac e038 1786 7d3a b48b dab8 b210 40b9
00000110: 4e9c 123a 2cea 18ba 2480 4bba c4aa 8a38
00000120: c14e d739 a72f 763a 262b f33a 37e9 0e3a
00000130: 3ada 1a3a 2bee af3a a60f e035 40ba 70b8
00000140: cc92 4c3a a22d 3dbb 4432 ccba 7f16 ab3a
00000150: 6a42 18bb c7b1 4cbb 29e3 2eba 5b04 0fbb
00000160: a62f 17bb 7fb4 c5ba 54d5 b7bb ff1a 95bb
00000170: 682c 18bb a057 8dbb 6de3 b1bb c4ee 75bb
00000180: a3dd 8ebb 833a 9bbb a1d3 a0bb a0c5 0fbc
00000190: f073 02bc 16e6 bcbb 57e6 e5bb cdde 04bc
000001a0: ff33 debb 0d59 d7bb e99e dfbb a66b eabb
000001b0: 1cbe 73bd a68d 72bd c1b6 6abd 52ca 59bd
000001c0: b894 52bd 948b 56bd d8fb 53bd b5ee 3cbd
000001d0: b19d 3fbd 3887 7dbd c5c1 7cbd fe02 74bd
000001e0: 3809 66bd 3570 61bd 66d9 61bd ee8e 67bd
000001f0: 7449 53bd 7a8b 55bd 1334 68bd bf12 66bd
00000200: e5c7 5fbd 13d2 56bd 1bb0 4fbd 32b0 51bd
00000210: f20e 5dbd bf96 48bd 1e8a 47bd b659 cabb
00000220: 3578 8fbb c4ba fcba 7486 9abb 3b1e 58bb
00000230: 207c feb9 3668 2bbb dcbc 9bba 583f 883a
00000240: 720e afba 8a91 1339 9b03 013b e0a5 6d39
00000250: e121 993a 82e6 6b3b 7ace 043b a25c 4e3b
00000260: 8381 a93b 3242 a5bb 4583 83bb b0b2 1ebb
00000270: 0a3f 84bb 719e 63bb 1e1b a7ba da7d 28bb
00000280: 662c ebba 83cd 18b7 529a bdbc d6e0 8ebc
00000290: 3cef 56bc 1f9e abbc 5868 3ebc 8450 18bc
000002a0: c307 9bbc e56c 3bbc c33f 5cbc 91fd c3bc
000002b0: 5be4 91bc 11a2 56bc 2597 babc db30 55bc
000002c0: 39e7 27bc 3b02 adbc aa1e 54bc 30e6 6abc
000002d0: d41a d8bc 56be a8bc 3a01 86bc 2bef d3bc
000002e0: 8ddc 87bc 280f 66bc 5212 ccbc ead6 8dbc
000002f0: ba80 9abc 4512 0abc d878 08bc 9688 15bc
00000300: e470 cebb a1d4 ebbb 9d67 f3bb 263b cabb
00000310: 90da e2bb 6016 f4bb a1ae 41bc 4069 44bc
00000320: a634 53bc e355 21bc 2f8f 32bc ca5a 37bc
00000330: 353a 23bc 35ac 2abc aa5d 33bc 59a9 54bc
00000340: ccd4 55bc f61d 68bc 2933 2fbc 37f8 3fbc
00000350: 7b2e 49bc ad4c 2ebc 04b3 38bc 17df 45bc
00000360: 7c3c 0a3c 2d00 d63b bc3d 143c ee8c 153c
00000370: 45ad 443c 4e47 263c a6a4 e23b 4a3a 1a3c
00000380: c26e ef3b 2ae3 9abb 3736 00bc 107b c4bb
00000390: 1bfd 13bc 7818 c6bb 0d88 f1bb fafb 5cbc
000003a0: d997 36bc bfbe 44bc a056 17bc 9d67 62bc
000003b0: 84e7 76bc 8102 6bbc 1c05 59bc 447b 8bbc
000003c0: efd1 a3bc d5b0 9ebc 3f60 b1bc 070e e03d
000003d0: c0eb ce3d 8433 ce3d fad3 db3d 2c29 cc3d
000003e0: 0b84 cc3d 490e cd3d fee8 ba3d 0b19 ad3d
000003f0: 007a e03d 017b d63d 7cdf ca3d a937 e53d
